w1.npy (npy, 62848 bytes, 1 tensors)

array f8 [10, 784]
0.43887914856523613 0.42554520321466416 -0.4790105045488684 0.12613810759056898 0.43590943911362834 -0.45994427368823143 -0.07988359540234236 -0.07684081359079264
-0.1442627222781142 0.20551400841066436 0.45151999343943805 -0.09855342418190027 -0.21483225273970075 -0.11142147441148605 0.3539915519896085 -0.03586769517003052
-0.022394547634614792 -0.16884892198167556 0.34065922520259073 -0.29417098170480416 0.08692243967487712 0.3723326204154832 -0.4146910893399701 -0.33098707696969476
0.03635762023465616 0.3672701384828201 -0.3552055004622926 -0.3326819171366192 -0.31557794828294994 -0.258425269474132 0.4376594471217031 0.4938010944367227
-0.13454021460343704 -0.48251486243901814 0.21317891148759816 0.02071552785826781 -0.35233102925646803 -0.3960847852235831 0.4254368372345081 0.03463393461399849
0.40895863708236124 -0.2949193155343883 -0.3177860060655098 0.07318146618328915 0.15451382782457684 -0.43368646992552984 0.18738650118104105 -0.040960750039737565
0.4229703897741756 -0.21846866551175723 -0.42448925321111847 0.09557832000015826 0.12089844168756236 -0.21026761477516354 0.012522883453553346 0.09470892820266907
0.08770871087683796 0.28208834154439566 0.3137617258785026 -0.3002693736136842 -0.2861210296249803 -0.44547141306169397 0.0826252258707106 -0.31584851325477065
-0.4461565875896128 -0.5090809687681402 -0.09361852508772185 0.03719595838345465 -0.22537895183866238 -0.016069529795439824 0.3302816036039081 0.16163335765308137
-0.3444553828447684 0.003952346497119799 0.4206630867662972 -0.38301003320682553 -0.15661380983793036 0.3893735316057036 0.045800895863706614 -0.08578698700594424
-0.4860477158724365 -0.2905221284380803 0.42652134701037225 -0.0213364560592465 -0.4281771696841753 0.3761363362223915 -0.4460999374361394 0.33316458400933785
0.2535700653379726 -0.2868234160369418 0.38439419265447167 -0.21059726199472706 0.06609958513809214 0.26720742282823845 0.026820038394595156 0.20375756700501804
0.2913771376847096 -0.22304371380077423 0.22171336756870896 -0.29953065314772637 0.07753303439056979 0.29034971529774567 0.09060781938887486 0.3309813422961283
0.0576774657533821 -0.08288651840646272 -0.2728906006267635 0.32898575742317954 0.36799197316205307 0.3510757970033905 0.09233729695299318 0.36347885408042135
0.3763302962596642 -0.4441416756795523 0.18536098397668432 -0.011487992360313965 -0.47461340488426845 -0.28750732387581246 0.043832998145877954 -0.3408648820042459
-0.2867656947551751 0.08251345966703423 -0.22001199942095173 0.28683116682189325 0.21299338279004848 0.09367579868999652 0.12260581333468563 0.47589115286136197
0.507566286114624 0.1873762636997826 -0.24268630529369142 0.1547253349983988 -0.19518370638955237 -0.09090306377893748 -0.32007790863102004 -0.3326573570161293
0.25184571022252034 -0.2141428936523921 -0.027986302433841256 -0.1575029784335349 0.009475155123426227 0.19178012924581556 -0.029117812751945634 -0.2829372275119884
-0.3848298293418023 -0.34419542712661744 0.3913130322962899 -0.07826526431714807 -0.31243600712489533 0.20016432068432763 0.05068397644533345 0.14168480487279586
0.09976578838073527 0.27697360647177655 -0.015780020924094997 0.3259194523124243 0.029435091048083662 0.2829203787772135 0.29039064018795 0.3105045648222616
-0.02305275527748502 0.35881119345683193 0.07707898730246013 -0.2520425410547981 -0.0026331190939469728 -0.10881600572394033 -0.3699825857513826 0.21394131893694454
0.23064879238288571 -0.022895851567985334 -0.44859296751965605 0.11800102511214233 0.110246515850546 -0.3560016383648099 -0.22404856372012022 0.0725770502491923
0.07672897971008372 0.06134470080329689 -0.12439633765134311 -0.33106020178193984 0.04922806822856888 0.05141852113222163 0.11461114244487454 0.4151723769567526
-0.17226082485934513 0.19549328310135355 0.05219458543754916 0.1849350892849083 0.18103698325341921 0.10686918874436922 -0.12643457609478012 0.5184588783661008
0.6515274691431212 -0.3185117446909366 0.5186312117172872 0.03390244362375959 0.07971081889865683 0.4955571072618189 -0.34774128120432973 -0.45099079791708185
-0.47150930602423985 -0.2691259146843059 -0.052926791192653935 -0.3459191916496529 -0.045624037059276916 -0.03727087232219933 0.03297963924159192 -0.12750607904365407
-0.30450845885192024 -0.07360025686884696 0.11371824098385623 0.1236075198653371 0.00469686692254617 -0.09207358130509762 -0.14075440103260026 -0.22725392685046752
-0.09954712329463805 0.020528119876864124 0.30776642702683393 -0.009103681280463924 0.7288126106697254 0.4875403484008984 -0.43847139663423657 0.49112383370968027
-0.19178926432366997 0.03602021503940724 0.39922951198594503 0.14105310535739207 -0.5070643425367823 -0.07072950215587155 -0.1149010367010957 0.16285612052105272
-0.31696472918378515 0.2692524628356143 -0.22779215943235392 -0.20002002984968661 -0.28262968014883144 0.08707624845978676 0.045685497417578935 -0.14176122817944115
0.050513835165202775 -0.15048398833394167 -0.05020180939245495 0.5099517934415123 -0.1371975794874183 0.4651391357029454 -0.12165514470350859 0.0863458348038609
0.41050020092183864 0.19745930432669792 -0.004191494207119698 -0.11511176487548173 -0.09757820435695062 -0.4752826844387786 -0.41166324300774687 -0.186128556932939
00000000: 18fa 7e91 9816 dc3f beb4 b1f2 213c db3f
00000010: 1495 deac 1ba8 debf d0be 7023 4b25 c03f
00000020: eaaf 40b4 f0e5 db3f a24c 5e1b ba6f ddbf
00000030: c86d bd55 4073 b4bf 38d8 5eed d6ab b3bf
00000040: 04b4 1b6d 3377 c2bf a830 7f74 484e ca3f
00000050: 5800 541d b4e5 dc3f c823 c515 cc3a b9bf
00000060: 844e d28d 9f7f cbbf fd5f ab24 1e86 bcbf
00000070: 02c3 b62e cca7 d63f 80f2 7923 405d a2bf
00000080: 802b cca6 98ee 96bf c025 f06a d79c c5bf
00000090: 56da d459 5ccd d53f a4ad 7686 b2d3 d2bf
000000a0: 702f b18b 8c40 b63f 6ac8 fa32 4cd4 d73f
000000b0: 2a19 aa7e 4c8a dabf 3cf1 be6b e42e d5bf
000000c0: 7089 bc4b 779d a23f cc30 659c 5a81 d73f
000000d0: 2e12 f6d9 afbb d6bf 92a1 8418 a94a d5bf
000000e0: fcb2 cdd9 6d32 d4bf 147d 3624 0a8a d0bf
000000f0: fe14 0bc5 9c02 dc3f 3e6c d5e7 6f9a df3f
00000100: 8dfa db1e 9d38 c1bf 019c 8004 86e1 debf
00000110: 589f 8452 7249 cb3f 82bb ae8a 7336 953f
00000120: 7371 0172 978c d6bf 4f9f beff 7359 d9bf
00000130: 94e5 9b6d 5b3a db3f 3773 ff00 8abb a13f
00000140: d0de ebd8 602c da3f 2473 cb43 f5df d2bf
00000150: 7061 cb1d 9b56 d4bf f938 ee43 05bc b23f
00000160: 8aa6 a4ee 1bc7 c33f c80f 43e5 84c1 dbbf
00000170: 6c68 24e7 47fc c73f 443c aeb3 cef8 a4bf
00000180: cb69 d065 f211 db3f fb70 c9fe c7f6 cbbf
00000190: d5e4 02f9 d42a dbbf 2c78 9b1e d277 b83f
000001a0: 3879 2f45 33f3 be3f 2c02 6f98 0cea cabf
000001b0: 80b9 13f7 98a5 893f 7809 4525 d83e b83f
000001c0: a053 cafc 1374 b63f 1607 6142 bc0d d23f
000001d0: b09e d80f ac14 d43f c250 ea08 9d37 d3bf
000001e0: 10fa 3b94 ce4f d2bf d5c8 9987 9a82 dcbf
000001f0: f576 f042 ed26 b53f 79d8 baae dc36 d4bf
00000200: 01e9 255c d48d dcbf 4f01 fc2b 644a e0bf
00000210: 7930 8d37 62f7 b7bf dbc2 9941 590b a33f
00000220: c749 adad 37d9 ccbf 78ea bbe3 8774 90bf
00000230: 0ac0 7c73 5523 d53f 1b05 88e0 66b0 c43f
00000240: d2f6 0f97 8e0b d6bf d053 29ef 5530 703f
00000250: 0bec 12de 24ec da3f b371 aa83 3c83 d8bf
00000260: 478d addb eb0b c4bf 532b 0bf6 7eeb d83f
00000270: 0068 b90b 3773 a73f 81e7 9ccf 22f6 b5bf
00000280: 67ed fde0 671b dfbf b7f9 1920 ea97 d2bf
00000290: 8a25 1d31 204c db3f 60b1 f253 39d9 95bf
000002a0: f6fd 2b37 4167 dbbf 4865 ba23 9e12 d83f
000002b0: 9c4b 82c0 e68c dcbf f15a 208c 9152 d53f
000002c0: 57c1 77f0 7d3a d03f 3fc3 e699 505b d2bf
000002d0: 354a 8e19 ea99 d83f dc7e 72e0 d9f4 cabf
000002e0: 8280 7204 e7eb b03f 35ed 9229 ed19 d13f
000002f0: 4906 214f b676 9b3f b1ae 4c5b ba14 ca3f
00000300: 4f1b 4a4b eca5 d23f 9325 2d48 b28c ccbf
00000310: bc95 6587 1a61 cc3f f7d0 da9d 822b d3bf
00000320: 1f30 1177 34d9 b33f a4d4 e6f8 1695 d23f
00000330: e07e 09f5 1232 b73f 18e0 2f5e cc2e d53f
00000340: c5fd 409a e687 ad3f 74c6 d505 0d38 b5bf
00000350: ccf9 4423 0a77 d1bf bfde 3e47 1a0e d53f
00000360: 4ffa 7a34 2e8d d73f 15fd a29e 0678 d63f
00000370: af38 9dc6 6aa3 b73f a207 c4cf 3c43 d73f
00000380: d078 bbaa cb15 d83f 6e65 f534 d16c dcbf
00000390: c02e 11a2 e8b9 c73f 8abc df3b 0487 87bf
000003a0: 2727 0ee7 1060 debf d60d 5a1e 8566 d2bf
000003b0: 735a 0b5b 4771 a63f 680a 24f0 bad0 d5bf
000003c0: 00a5 2580 5e5a d2bf 1dee bf22 9a1f b53f
000003d0: a0ca 1e6b 5a29 ccbf ac4e 3e1c 715b d23f
000003e0: 5e80 acfe 5d43 cb3f dfda cc1b 23fb b73f
000003f0: ad6b 9236 1863 bf3f c6b2 7f2a 0075 de3f
00000400: 7e43 eda6 fb3d e03f 0691 5106 f2fb c73f
00000410: 7934 3648 5810 cfbf 6023 d72e 0ace c33f
00000420: 63dd d399 c7fb c8bf b467 0956 6c45 b7bf
00000430: f681 6f0d 287c d4bf d81d 4a15 424a d5bf
00000440: a2ca 4278 3d1e d03f c733 74ca 0869 cbbf
00000450: 5fdb c1f6 70a8 9cbf 1883 b2be 0e29 c4bf
00000460: 0082 09cb b567 833f 4414 9153 408c c83f
00000470: 8fac 0056 0fd1 9dbf a108 bfbe a41b d2bf
00000480: 6217 e34a 0da1 d8bf bc42 bc41 4c07 d6bf
00000490: 9883 0dd1 450b d93f 97aa a73e 3109 b4bf
000004a0: 916e 2c98 f3fe d3bf b326 9505 fc9e c93f
000004b0: 5723 870a 40f3 a93f 0768 a249 ba22 c23f
000004c0: b2db 5a2e 408a b93f 6db1 6981 efb9 d13f
000004d0: 375d 3247 a328 90bf 59f9 3343 dddb d43f
000004e0: 8d0d a085 3b24 9e3f 8915 8e13 5e1b d23f
000004f0: eefd aa9f c295 d23f 9de6 ca89 4edf d33f
00000500: 317a ff37 249b 97bf 1d7e 5539 c3f6 d63f
00000510: ea40 acd1 72bb b33f 77fd c109 7721 d0bf
00000520: 73a3 a30c 0d92 65bf b79c dda1 5ddb bbbf
00000530: ad11 7970 cbad d7bf bf73 0cdc 6d62 cb3f
00000540: d8bc 124e e685 cd3f 3c55 cb96 0272 97bf
00000550: d099 2d47 bfb5 dcbf cc49 c0af 5035 be3f
00000560: 6777 139c 1d39 bc3f 905a 8618 bbc8 d6bf
00000570: 6264 f292 9fad ccbf 83ab 42d9 6894 b23f
00000580: 36a0 82aa 82a4 b33f 4e54 7797 9268 af3f
00000590: b466 f439 70d8 bfbf 2647 ea20 1730 d5bf
000005a0: 0586 2cde 6b34 a93f ead8 5745 8753 aa3f
000005b0: bdd4 8ee4 2757 bd3f 68d6 4e29 2f92 da3f
000005c0: 4891 9388 a40c c6bf 9605 c184 ec05 c93f
000005d0: fd10 f7aa 3fb9 aa3f 5346 2ef8 f3ab c73f
000005e0: cc4f 3849 382c c73f 076c 9b76 c75b bb3f
000005f0: f391 b418 022f c0bf 62e7 dc12 3797 e03f
00000600: 964a 8d22 50d9 e43f f3b9 b515 7f62 d4bf
00000610: d756 a07b a098 e03f 1eb0 3c3d a95b a13f
00000620: c09e 4ea0 ed67 b43f 225a 3f28 35b7 df3f
00000630: 9978 8fa5 6441 d6bf b273 f681 08dd dcbf
00000640: 9f8f 485e 352d debf c0cf 84e6 5b39 d1bf
00000650: 0a64 826a 3819 abbf c06a cc3f 8a23 d6bf
00000660: 2784 29a6 085c a7bf c839 6ff3 2a15 a3bf
00000670: d8f9 f30f b5e2 a03f cc4f c483 1e52 c0bf
00000680: 80f5 070c 117d d3bf ff98 3a68 77d7 b2bf
00000690: b3fb fb7d a31c bd3f b67d 5c0f bea4 bf3f
000006a0: bd4b 379d 053d 733f 0bef 875c 2292 b7bf
000006b0: bffe 997e 3d04 c2bf 3cec da1b a816 cdbf
000006c0: 0c1b f696 eb7b b9bf 89f7 13ce 5205 953f
000006d0: f9c4 b8f4 71b2 d33f 8b7e fb6a f3a4 82bf
000006e0: aba4 f7d2 6e52 e73f ff2f f76e dc33 df3f
000006f0: a3a1 3155 ea0f dcbf 166e 04a9 926e df3f
00000700: 6d3d fff4 8c8c c8bf f3a3 2ddb 3d71 a23f
00000710: 9cf8 64f0 f98c d93f d22e 4135 070e c23f
00000720: 1d39 0500 df39 e0bf 3d30 9f22 541b b2bf
00000730: 245f e882 276a bdbf 8db1 cb27 78d8 c43f
00000740: 541c 756e 2649 d4bf 54c5 8fae 6e3b d13f
00000750: ee09 8621 4b28 cdbf a1ea 5f9f 419a c9bf
00000760: 1f90 47cc 9a16 d2bf c6a5 6407 a14a b63f
00000770: 88b7 9eea 1664 a73f 188d 6f5f 3b25 c2bf
00000780: bc66 0f0c f3dc a93f 6ea3 3b30 0f43 c3bf
00000790: 19cc 1433 0db4 a9bf 5ec5 6b6c 8651 e03f
000007a0: b891 7eb6 b08f c1bf 4ec4 fbef d6c4 dd3f
000007b0: 9147 e4a3 ca24 bfbf e6de a0b8 c21a b63f
000007c0: 897c 7da2 a245 da3f d1e1 2fb3 5846 c93f
000007d0: ddbd a7a8 192b 71bf bb68 86f1 f677 bdbf
000007e0: 4ff8 839c e2fa b8bf d141 8110 086b debf
000007f0: abbf 6bc9 b058 dabf 8277 7080 0fd3 c7bf
