w2.npy (npy, 928 bytes, 1 tensors)

array f8 [10, 10]
0	0x3fdb102ee794f5a5	0.4228627454320651
1	0xbfb2c5641a71964a	-0.07332444806669361
2	0x3fb65bfe5babc550	0.08734121072827361
3	0xbfd8be893e26228c	-0.3866294009135707
4	0x3fcc7c5f3632d413	0.2225455298081732
5	0xbfd226bdd3c97048	-0.2836145942908428
6	0xbfe0d6e443d6acb2	-0.5262318921062585
7	0x3fe7b3e6e7dd843c	0.7407106903666612
8	0x3fc71bdacfe1d524	0.18053755903717061
9	0xbfe7559397005e6e	-0.7291963528868572
10	0xbfdea7d71951d6c9	-0.47899415466904977
11	0x3fe5b255adf1bd4c	0.678019370779944
12	0xbfb3221f03f6ef3f	-0.07473939749519064
13	0xbfd4fe6d070a5397	-0.32802892386944776
14	0xbff18088c27d2430	-1.0938804242343956
15	0x3fdf5eda6e80ac5a	0.4901643828513379
16	0xbfcf9afefb99f6d5	-0.24691760335183824
17	0xbfd8817826e3ef77	-0.3829021816052242
18	0x3fd43c9beaee8256	0.31619928305193434
19	0x3fecf76bc18ca752	0.9052027492773311
20	0xbfdbdd20014a4bc2	-0.43537140012739084
21	0xbff2c077a74e7392	-1.171989110508751
22	0x3fe1c026fbcd0546	0.5547060888276654
23	0xbfb0f698af1058a9	-0.0662627627756104
24	0x3fe1d5265584c509	0.5572692556653759
25	0xbfd94efc5c2bf34b	-0.39544590951100095
26	0x3f79b9166fbec1d1	0.006280028956027598
27	0x3febdbeba3d2d633	0.8705957603148761
28	0x3fad8e13dff52102	0.05772459133965137
29	0x3fc566eac9862d27	0.16720328178448904
30	0xbfa0f4fecce9ce65	-0.03311916591055989
31	0xbfe9e74393b53bca	-0.8094804654045842
32	0xbfe52f032a631882	-0.6619888141510872
33	0xbfeba74125e19169	-0.864166807161877
34	0xbfcce4a064207a59	-0.22572712792403385
35	0x3fdd238cb77cfb75	0.45529477995653816
36	0xbfcf47db7e3694c8	-0.2443804136538914
37	0x3fdb6f5f0c8ed0c7	0.42867256380419544
38	0x3fe2f981c5c79b5b	0.5929573881993336
39	0x3fe98df40291f040	0.798578267116234
40	0x3fe06f5db0ead943	0.5135944800775082
41	0xbf907039335c3c2a	-0.01605309844950057
42	0xbfe35f763f6f9e0b	-0.6054030646309355
43	0x3fe7af3a6e602231	0.7401401668331059
44	0x3fd270cba0bdacd0	0.28813448617320336
45	0xbfee7a8ca8192898	-0.9524596484345862
46	0x3fd2d4362bdf0bfa	0.29420236858658166
47	0xbff77d2b2887c2af	-1.4680587371077924
48	0xbff07f7d9964c6f1	-1.0311256401004665
49	0xbfa0670506f8b9f8	-0.03203597745993031
50	0x3fd69ea12516220d	0.35343197461819004
51	0x3ff052957eafc965	1.0201621006677553
52	0x3fb9a4c048381245	0.10017015231284983
53	0xbfdf1fac50a3eded	-0.4863081729415331
54	0xbfccdf8ae374a02d	-0.22557197672108611
55	0x3ff405bed7e55e18	1.2514027055202686
56	0xbfdc35e3656d7145	-0.44078907876043544
57	0x3fb231953e430309	0.07106907625258087
58	0x3fc774ee1bc35441	0.18325592380156944
59	0xbfd4eb7788f5eae2	-0.3268717610841759
60	0xbfa00f1b2d846ba4	-0.03136525087958056
61	0xbf2c14e119595bd4	-0.00021424529829758168
62	0x3feab0dd04697cea	0.8340897642300693
63	0x3fd8f548387cb33c	0.38997083202666594
64	0x3fcdbc54dbb7d693	0.2323099205820439
65	0xbfd40c27f9cbf06d	-0.3132419528408324
66	0xbfe082ddc9ea36f0	-0.5159748977327734
67	0xbfe339243dc53c48	-0.6007252890066264
68	0xbfc94acfa828e89e	-0.1975955554096957
69	0x3f81150a519a77d4	0.008340912452066286
70	0xbfefc3b6033373da	-0.992640501262595
71	0xbfd3105a3877c89f	-0.2978730727619538
72	0xbfd8aadb274226fa	-0.38542822679356414
73	0x3fca1fd40e2b55cb	0.20409632388934393
74	0x3fd9ba37c61fbea3	0.4019908366017068
75	0xbfded5b1cfee089f	-0.4817928820194854
76	0x3fea9309bbd42b12	0.8304489773302939
77	0x3fe2d3b1d25e3fac	0.588341627955733
78	0x3fefd905ae96445a	0.9952419671918833
79	0x3fc45ff450958bdd	0.15917829451345158
80	0x3fe3ee70a73fd43b	0.622856451662876
81	0xbfc43290da79ccef	-0.1577931467796598
82	0xbfd1ffa7d50f0281	-0.2812289791727736
83	0xbfd40a947af21b17	-0.313145752014337
84	0xbff68c4e0d4d20a9	-1.4092541236478076
85	0xbfe2c2df3bc30781	-0.5862880866263681
86	0x3fda4c0af2984f2a	0.41089128199495184
87	0xbfc2ba895e8d5470	-0.14631764523315693
88	0xbfe0efa4e8cbe1c2	-0.5292534395985558
89	0x3fc4509d8d8e69ed	0.15871018802575013
90	0x3f859ab78c71c0b5	0.010549005483170818
91	0x3fcd124152cdfdf0	0.22711960356899352
92	0xbfef49da1706a065	-0.9777651262020411
93	0x3fe7365c14095d7a	0.725385703214598
94	0xbfd9b071eaa53a69	-0.4013943473300175
95	0xbfd53701d54c0ee5	-0.33148237066073555
96	0x3fe36ba03b651aa3	0.6068879280145051
97	0xbfd50b43727b42f2	-0.32881246738274605
98	0xbfcfd07c47fbac67	-0.24854997172164703
99	0x3fd35164b37738f8	0.30184285665463007
